2020-07-15 00:32:46,232 - INFO - Channel of image is 3.
2020-07-15 00:32:47,778 - CRITICAL - The model structer is:
CRNN(
  (cnn): Sequential(
    (conv0): Conv2d(3, 32, kernel_size=(3, 3), stride=(1, 1), padding=(1, 1))
    (batchnorm0): BatchNorm2d(32, eps=1e-05, momentum=0.1, affine=True, track_running_stats=True)
    (relu0): ReLU(inplace=True)
    (conv1): Conv2d(32, 32, kernel_size=(3, 3), stride=(1, 1), padding=(1, 1))
    (batchnorm1): BatchNorm2d(32, eps=1e-05, momentum=0.1, affine=True, track_running_stats=True)
    (relu1): ReLU(inplace=True)
    (pooling0): MaxPool2d(kernel_size=2, stride=2, padding=0, dilation=1, ceil_mode=False)
    (conv2): Conv2d(32, 64, kernel_size=(3, 3), stride=(1, 1), padding=(1, 1))
    (batchnorm2): BatchNorm2d(64, eps=1e-05, momentum=0.1, affine=True, track_running_stats=True)
    (relu2): ReLU(inplace=True)
    (conv3): Conv2d(64, 64, kernel_size=(3, 3), stride=(1, 1), padding=(1, 1))
    (batchnorm3): BatchNorm2d(64, eps=1e-05, momentum=0.1, affine=True, track_running_stats=True)
    (relu3): ReLU(inplace=True)
    (pooling1): MaxPool2d(kernel_size=2, stride=2, padding=0, dilation=1, ceil_mode=False)
    (conv4): Conv2d(64, 64, kernel_size=(3, 3), stride=(1, 1), padding=(1, 1))
    (batchnorm4): BatchNorm2d(64, eps=1e-05, momentum=0.1, affine=True, track_running_stats=True)
    (relu4): ReLU(inplace=True)
    (conv5): Conv2d(64, 64, kernel_size=(3, 3), stride=(1, 1), padding=(1, 1))
    (batchnorm5): BatchNorm2d(64, eps=1e-05, momentum=0.1, affine=True, track_running_stats=True)
    (relu5): ReLU(inplace=True)
  )
  (spp1): MaxPool2d(kernel_size=(2, 2), stride=(2, 1), padding=(0, 1), dilation=1, ceil_mode=False)
  (spp2): MaxPool2d(kernel_size=(3, 2), stride=(2, 1), padding=(0, 1), dilation=1, ceil_mode=False)
  (spp3): MaxPool2d(kernel_size=(3, 2), stride=(2, 1), padding=(0, 1), dilation=1, ceil_mode=False)
  (rnn): Sequential(
    (0): BidirectionalLSTM(
      (rnn): LSTM(640, 128, bidirectional=True)
    )
    (1): BidirectionalLSTM(
      (rnn): LSTM(256, 128, bidirectional=True)
    )
  )
  (text_cls): Linear(in_features=256, out_features=322, bias=True)
  (color_cls): Linear(in_features=256, out_features=5, bias=True)
)
2020-07-15 00:32:51,218 - INFO - [0/100][100/1563] Loss: 5.075819
2020-07-15 00:32:53,400 - INFO - [0/100][200/1563] Loss: 4.921572
2020-07-15 00:32:55,600 - INFO - [0/100][300/1563] Loss: 4.910856
2020-07-15 00:32:57,763 - INFO - [0/100][400/1563] Loss: 4.621382
2020-07-15 00:32:59,943 - INFO - [0/100][500/1563] Loss: 4.333470
2020-07-15 00:33:02,144 - INFO - [0/100][600/1563] Loss: 4.085493
…
