2020-07-12 19:49:17,272 - INFO - Channel of image is 3.
2020-07-12 19:49:18,894 - CRITICAL - The model structer is:
CRNN(
  (cnn): Sequential(
    (conv0): Conv2d(3, 32, kernel_size=(3, 3), stride=(1, 1), padding=(1, 1))
    (batchnorm0): BatchNorm2d(32, eps=1e-05, momentum=0.1, affine=True, track_running_stats=True)
    (relu0): ReLU(inplace=True)
    (conv1): Conv2d(32, 32, kernel_size=(3, 3), stride=(1, 1), padding=(1, 1))
    (batchnorm1): BatchNorm2d(32, eps=1e-05, momentum=0.1, affine=True, track_running_stats=True)
    (relu1): ReLU(inplace=True)
    (pooling0): MaxPool2d(kernel_size=2, stride=2, padding=0, dilation=1, ceil_mode=False)
    (conv2): Conv2d(32, 64, kernel_size=(3, 3), stride=(1, 1), padding=(1, 1))
    (batchnorm2): BatchNorm2d(64, eps=1e-05, momentum=0.1, affine=True, track_running_stats=True)
    (relu2): ReLU(inplace=True)
    (conv3): Conv2d(64, 64, kernel_size=(3, 3), stride=(1, 1), padding=(1, 1))
    (batchnorm3): BatchNorm2d(64, eps=1e-05, momentum=0.1, affine=True, track_running_stats=True)
    (relu3): ReLU(inplace=True)
    (pooling1): MaxPool2d(kernel_size=2, stride=2, padding=0, dilation=1, ceil_mode=False)
    (conv4): Conv2d(64, 64, kernel_size=(3, 3), stride=(1, 1), padding=(1, 1))
    (batchnorm4): BatchNorm2d(64, eps=1e-05, momentum=0.1, affine=True, track_running_stats=True)
    (relu4): ReLU(inplace=True)
    (conv5): Conv2d(64, 64, kernel_size=(3, 3), stride=(1, 1), padding=(1, 1))
    (batchnorm5): BatchNorm2d(64, eps=1e-05, momentum=0.1, affine=True, track_running_stats=True)
    (relu5): ReLU(inplace=True)
  )
  (spp1): MaxPool2d(kernel_size=(2, 2), stride=(2, 1), padding=(0, 1), dilation=1, ceil_mode=False)
  (spp2): MaxPool2d(kernel_size=(3, 2), stride=(2, 1), padding=(0, 1), dilation=1, ceil_mode=False)
  (spp3): MaxPool2d(kernel_size=(3, 2), stride=(2, 1), padding=(0, 1), dilation=1, ceil_mode=False)
  (rnn): Sequential(
    (0): BidirectionalLSTM(
      (rnn): LSTM(640, 128, bidirectional=True)
    )
    (1): BidirectionalLSTM(
      (rnn): LSTM(256, 128, bidirectional=True)
    )
  )
  (cls): Linear(in_features=256, out_features=322, bias=True)
)
2020-07-12 19:49:22,272 - INFO - [0/100][100/4956] Loss: 6.044725
2020-07-12 19:49:24,263 - INFO - [0/100][200/4956] Loss: 5.917468
2020-07-12 19:49:26,265 - INFO - [0/100][300/4956] Loss: 5.717971
2020-07-12 19:49:28,258 - INFO - [0/100][400/4956] Loss: 5.503618
2020-07-12 19:49:30,247 - INFO - [0/100][500/4956] Loss: 5.410524
2020-07-12 19:49:32,246 - INFO - [0/100][600/4956] Loss: 5.111428
…
