2020-07-21 15:54:18,103 - INFO - Channel of image is 3.
2020-07-21 15:54:19,632 - CRITICAL - The model structer is:
CRNN(
  (cnn): Sequential(
    (conv_0): Conv2d(3, 24, kernel_size=(5, 5), stride=(2, 2), padding=(2, 2))
    (relu_0): ReLU(inplace=True)
    (conv1): Conv2d(24, 24, kernel_size=(3, 3), stride=(1, 1), padding=(1, 1), groups=24)
    (relu1): ReLU(inplace=True)
    (convproject1): Conv2d(24, 128, kernel_size=(1, 1), stride=(1, 1))
    (pooling1): MaxPool2d(kernel_size=2, stride=2, padding=0, dilation=1, ceil_mode=False)
    (conv2): Conv2d(128, 128, kernel_size=(3, 3), stride=(1, 1), padding=(1, 1), groups=128)
    (batchnorm2): BatchNorm2d(128, eps=1e-05, momentum=0.1, affine=True, track_running_stats=True)
    (relu2): ReLU(inplace=True)
    (convproject2): Conv2d(128, 256, kernel_size=(1, 1), stride=(1, 1))
    (batchnormproject2): BatchNorm2d(256, eps=1e-05, momentum=0.1, affine=True, track_running_stats=True)
    (conv3): Conv2d(256, 256, kernel_size=(3, 3), stride=(1, 1), padding=(1, 1), groups=256)
    (relu3): ReLU(inplace=True)
    (convproject3): Conv2d(256, 256, kernel_size=(1, 1), stride=(1, 1))
    (pooling2): MaxPool2d(kernel_size=(2, 2), stride=(2, 1), padding=(0, 1), dilation=1, ceil_mode=False)
    (conv4): Conv2d(256, 256, kernel_size=(3, 3), stride=(1, 1), padding=(1, 1), groups=256)
    (batchnorm4): BatchNorm2d(256, eps=1e-05, momentum=0.1, affine=True, track_running_stats=True)
    (relu4): ReLU(inplace=True)
    (convproject4): Conv2d(256, 512, kernel_size=(1, 1), stride=(1, 1))
    (batchnormproject4): BatchNorm2d(512, eps=1e-05, momentum=0.1, affine=True, track_running_stats=True)
    (conv5): Conv2d(512, 512, kernel_size=(3, 3), stride=(1, 1), padding=(1, 1), groups=512)
    (relu5): ReLU(inplace=True)
    (convproject5): Conv2d(512, 512, kernel_size=(1, 1), stride=(1, 1))
    (pooling3): MaxPool2d(kernel_size=(2, 2), stride=(2, 1), padding=(0, 1), dilation=1, ceil_mode=False)
    (conv6): Conv2d(512, 512, kernel_size=(2, 2), stride=(1, 1), groups=512)
    (batchnorm6): BatchNorm2d(512, eps=1e-05, momentum=0.1, affine=True, track_running_stats=True)
    (relu6): ReLU(inplace=True)
    (convproject6): Conv2d(512, 512, kernel_size=(1, 1), stride=(1, 1))
    (batchnormproject6): BatchNorm2d(512, eps=1e-05, momentum=0.1, affine=True, track_running_stats=True)
  )
  (rnn): Sequential(
    (0): BidirectionalLSTM(
      (rnn): LSTM(512, 128, bidirectional=True)
      (embedding): Linear(in_features=256, out_features=256, bias=True)
    )
    (1): BidirectionalLSTM(
      (rnn): LSTM(256, 64, bidirectional=True)
      (embedding): Linear(in_features=128, out_features=322, bias=True)
    )
  )
)
2020-07-21 15:54:23,338 - INFO - [0/100][100/1563] Loss: 3.909749
2020-07-21 15:54:25,457 - INFO - [0/100][200/1563] Loss: 4.453252
2020-07-21 15:54:27,508 - INFO - [0/100][300/1563] Loss: 5.140489
2020-07-21 15:54:29,533 - INFO - [0/100][400/1563] Loss: 5.172057
2020-07-21 15:54:31,559 - INFO - [0/100][500/1563] Loss: 5.729730
2020-07-21 15:54:33,646 - INFO - [0/100][600/1563] Loss: 5.656211
…
